ppo with teacher actor
no imitation
MixedMlpBarlowTwinsActor(
  (mlp_encoder): Sequential(
    (0): Linear(in_features=225, out_features=512, bias=True)
    (1): ELU(alpha=1.0)
    (2): Linear(in_features=512, out_features=256, bias=True)
    (3): ELU(alpha=1.0)
    (4): LayerNorm((256,), eps=1e-05, elementwise_affine=True)
    (5): Linear(in_features=256, out_features=128, bias=True)
    (6): ELU(alpha=1.0)
    (7): LayerNorm((128,), eps=1e-05, elementwise_affine=True)
    (8): Linear(in_features=128, out_features=23, bias=True)
  )
  (actor): MixedMlp(
    (gate): Sequential(
      (0): Linear(in_features=68, out_features=128, bias=True)
      (1): ELU(alpha=1.0)
      (2): Linear(in_features=128, out_features=128, bias=True)
      (3): ELU(alpha=1.0)
      (4): Linear(in_features=128, out_features=4, bias=True)
    )
  )
  (obs_encoder): Sequential(
    (0): Linear(in_features=45, out_features=256, bias=True)
    (1): ELU(alpha=1.0)
    (2): Linear(in_features=256, out_features=128, bias=True)
    (3): ELU(alpha=1.0)
    (4): LayerNorm((128,), eps=1e-05, elementwise_affine=True)
    (5): Linear(in_features=128, out_features=16, bias=True)
  )
  (bn): BatchNorm1d(16, eps=1e-05, momentum=0.1, affine=False, track_running_stats=True)
)
running with imi loss off
num_transitions_per_env: 24
cost_shape: [9]
/home/pi/Downloads/LocomotionWithNP3O-master/runner/on_constraint_policy_runner.py:45: FutureWarning: You are using `torch.load` with `weights_only=False` (the current default value), which uses the default pickle module implicitly. It is possible to construc
…
