…
    self.post_physics_step()
  File "/home/pi/Downloads/LocomotionWithNP3O-master/envs/legged_robot.py", line 520, in post_physics_step
    self.compute_observations()
  File "/home/pi/Downloads/LocomotionWithNP3O-master/envs/legged_robot.py", line 396, in compute_observations
    self.compute_ref_state()
  File "/home/pi/Downloads/LocomotionWithNP3O-master/envs/legged_robot.py", line 1269, in compute_ref_state
    self.ref_dof_pos[i,1] += abs(sin_pos_l) * scale_1 #大腿
IndexError: too many indices for tensor of dimension 1
ppo with teacher actor
no imitation
MixedMlpBarlowTwinsActor(
  (mlp_encoder): Sequential(
    (0): Linear(in_features=235, out_features=512, bias=True)
    (1): ELU(alpha=1.0)
    (2): Linear(in_features=512, out_features=256, bias=True)
    (3): ELU(alpha=1.0)
    (4): LayerNorm((256,), eps=1e-05, elementwise_affine=True)
    (5): Linear(in_features=256, out_features=128, bias=True)
    (6): ELU(alpha=1.0)
    (7): LayerNorm((128,), eps=1e-05, elementwise_affine=True)
    (8): Linear(in_features=128, out_features=23, bias=True)
  )
  (actor): MixedMlp(
    (gate): Sequential(
      (0): Linear(in_features=70, out_features=128, bias=True)
      (1): ELU(alpha=1.0)
      (2): Linear(in_features=128, out_features=128, bias=True)
      (3): ELU(alpha=1.0)
      (4): Linear(in_features=128, out_features=4, bias=True)
    )
  )
  (obs_encoder): Sequential(
    (0): Linear(in_features=47, out_features=256, bias=True)
    (1): ELU(alpha=1.0)
    (2): Linear(in_features=256, out_features=128, bias=True)
    (3): ELU(alpha=1.0)
    (4): LayerNorm((128,), eps=1e-05, elementwise_affine=True)
    (5): Linear(in_features=128, out_features=16, bias=True)
  )
  (bn): BatchNorm1d(16, eps=1e-05, momentum=0.1, affine=False, track_running_stats=True)
)
running with imi loss off